2020-05-05 21:16:24,871 - evaluation - INFO - LCNN(
  (layer1): Sequential(
    (0): mfm(
      (filter): Conv2d(1, 16, kernel_size=(5, 5), stride=(1, 1), padding=(2, 2))
    )
    (1): MaxPool2d(kernel_size=2, stride=2, padding=0, dilation=1, ceil_mode=False)
  )
  (layer2): Sequential(
    (0): group(
      (conv_a): mfm(
        (filter): Conv2d(8, 16, kernel_size=(1, 1), stride=(1, 1))
      )
      (bn): BatchNorm2d(8, eps=1e-05, momentum=0.1, affine=True, track_running_stats=True)
      (conv): mfm(
        (filter): Conv2d(8, 24, kernel_size=(3, 3), stride=(1, 1), padding=(1, 1))
      )
    )
    (1): MaxPool2d(kernel_size=2, stride=2, padding=0, dilation=1, ceil_mode=False)
    (2): BatchNorm2d(12, eps=1e-05, momentum=0.1, affine=True, track_running_stats=True)
  )
  (layer3): Sequential(
    (0): group(
      (conv_a): mfm(
        (filter): Conv2d(12, 24, kernel_size=(1, 1), stride=(1, 1))
      )
      (bn): BatchNorm2d(12, eps=1e-05, momentum=0.1, affine=True, track_running_stats=True)
      (conv): mfm(
        (filter): Conv2d(12, 24, kernel_size=(3, 3), stride=(1, 1), padding=(1, 1))
      )
    )
    (1): MaxPool2d(kernel_size=2, stride=2, padding=0, dilation=1, ceil_mode=False)
  )
  (layer4): Sequential(
    (0): group(
      (conv_a): mfm(
        (filter): Conv2d(12, 24, kernel_size=(1, 1), stride=(1, 1))
      )
      (bn): BatchNorm2d(12, eps=1e-05, momentum=0.1, affine=True, track_running_stats=True)
      (conv): mfm(
        (filter): Conv2d(12, 8, kernel_size=(3, 3), stride=(1, 1), padding=(1, 1))
      )
    )
    (1): BatchNorm2d(4, eps=1e-05, momentum=0.1, affine=True, track_running_stats=True)
    (2): group(
      (conv_a): mfm(
        (filter): Conv2d(4, 8, kernel_size=(1, 1), stride=(1, 1))
      )
      (bn): BatchNorm2d(4, eps=1e-05, momentum=0.1, affine=True, track_running_stats=True)
      (conv): mfm(
        (filter): Conv2d(4, 8, kernel_size=(3, 3), stride=(1, 1), padding=(1, 1))
      )
    )
    (3): MaxPool2d(kernel_size=2, stride=2, padding=0, dilation=1, ceil_mode=False)
  )
  (fc1): Sequential(
    (0): mfm(
      (filter): Sequential(
        (0): Linear(in_features=7844, out_features=64, bias=True)
        (1): Dropout(p=0.75, inplace=False)
      )
    )
    (1): BatchNorm1d(32, eps=1e-05, momentum=0.1, affine=True, track_running_stats=True)
  )
  (fc2): AngleLinear()
)
Trainable parameters: 509072
2020-05-05 21:16:24,875 - evaluation - INFO - Loading checkpoint: /home/dlcmu09/Fake-Audio-Detection/lcnn/AdvAttacksASVspoof/_saved/models/LA_lcnnHalf_LPSseg_uf_seg600/20200502_030052/model_best.pth ...
2020-05-05 21:17:52,417 - evaluation - INFO - LCNN(
  (layer1): Sequential(
    (0): mfm(
      (filter): Conv2d(1, 16, kernel_size=(5, 5), stride=(1, 1), padding=(2, 2))
    )
    (1): MaxPool2d(kernel_size=2, stride=2, padding=0, dilation=1, ceil_mode=False)
  )
  (layer2): Sequential(
    (0): group(
      (conv_a): mfm(
        (filter): Conv2d(8, 16, kernel_size=(1, 1), stride=(1, 1))
      )
      (bn): BatchNorm2d(8, eps=1e-05, momentum=0.1, affine=True, track_running_stats=True)
      (conv): mfm(
        (filter): Conv2d(8, 24, kernel_size=(3, 3), stride=(1, 1), padding=(1, 1))
      )
    )
    (1): MaxPool2d(kernel_size=2, stride=2, padding=0, dilation=1, ceil_mode=False)
    (2): BatchNorm2d(12, eps=1e-05, momentum=0.1, affine=True, track_running_stats=True)
  )
  (layer3): Sequential(
    (0): group(
      (conv_a): mfm(
        (filter): Conv2d(12, 24, kernel_size=(1, 1), stride=(1, 1))
      )
      (bn): BatchNorm2d(12, eps=1e-05, momentum=0.1, affine=True, track_running_stats=True)
      (conv): mfm(
        (filter): Conv2d(12, 24, kernel_size=(3, 3), stride=(1, 1), padding=(1, 1))
      )
    )
    (1): MaxPool2d(kernel_size=2, stride=2, padding=0, dilation=1, ceil_mode=False)
  )
  (layer4): Sequential(
    (0): group(
      (conv_a): mfm(
        (filter): Conv2d(12, 24, kernel_size=(1, 1), stride=(1, 1))
      )
      (bn): BatchNorm2d(12, eps=1e-05, momentum=0.1, affine=True, track_running_stats=True)
      (conv): mfm(
        (filter): Conv2d(12, 8, kernel_size=(3, 3), stride=(1, 1), padding=(1, 1))
      )
    )
    (1): BatchNorm2d(4, eps=1e-05, momentum=0.1, affine=True, track_running_stats=True)
    (2): group(
      (conv_a): mfm(
        (filter): Conv2d(4, 8, kernel_size=(1, 1), stride=(1, 1))
      )
      (bn): BatchNorm2d(4, eps=1e-05, momentum=0.1, affine=True, track_running_stats=True)
      (conv): mfm(
        (filter): Conv2d(4, 8, kernel_size=(3, 3), stride=(1, 1), padding=(1, 1))
      )
    )
    (3): MaxPool2d(kernel_size=2, stride=2, padding=0, dilation=1, ceil_mode=False)
  )
  (fc1): Sequential(
    (0): mfm(
      (filter): Sequential(
        (0): Linear(in_features=7844, out_features=64, bias=True)
        (1): Dropout(p=0.75, inplace=False)
      )
    )
    (1): BatchNorm1d(32, eps=1e-05, momentum=0.1, affine=True, track_running_stats=True)
  )
  (fc2): AngleLinear()
)
Trainable parameters: 509072
2020-05-05 21:17:52,420 - evaluation - INFO - Loading checkpoint: /home/dlcmu09/Fake-Audio-Detection/lcnn/AdvAttacksASVspoof/_saved/models/LA_lcnnHalf_LPSseg_uf_seg600/20200502_030052/model_best.pth ...
2020-05-05 21:20:37,577 - evaluation - INFO - LCNN(
  (layer1): Sequential(
    (0): mfm(
      (filter): Conv2d(1, 16, kernel_size=(5, 5), stride=(1, 1), padding=(2, 2))
    )
    (1): MaxPool2d(kernel_size=2, stride=2, padding=0, dilation=1, ceil_mode=False)
  )
  (layer2): Sequential(
    (0): group(
      (conv_a): mfm(
        (filter): Conv2d(8, 16, kernel_size=(1, 1), stride=(1, 1))
      )
      (bn): BatchNorm2d(8, eps=1e-05, momentum=0.1, affine=True, track_running_stats=True)
      (conv): mfm(
        (filter): Conv2d(8, 24, kernel_size=(3, 3), stride=(1, 1), padding=(1, 1))
      )
    )
    (1): MaxPool2d(kernel_size=2, stride=2, padding=0, dilation=1, ceil_mode=False)
    (2): BatchNorm2d(12, eps=1e-05, momentum=0.1, affine=True, track_running_stats=True)
  )
  (layer3): Sequential(
    (0): group(
      (conv_a): mfm(
        (filter): Conv2d(12, 24, kernel_size=(1, 1), stride=(1, 1))
      )
      (bn): BatchNorm2d(12, eps=1e-05, momentum=0.1, affine=True, track_running_stats=True)
      (conv): mfm(
        (filter): Conv2d(12, 24, kernel_size=(3, 3), stride=(1, 1), padding=(1, 1))
      )
    )
    (1): MaxPool2d(kernel_size=2, stride=2, padding=0, dilation=1, ceil_mode=False)
  )
  (layer4): Sequential(
    (0): group(
      (conv_a): mfm(
        (filter): Conv2d(12, 24, kernel_size=(1, 1), stride=(1, 1))
      )
      (bn): BatchNorm2d(12, eps=1e-05, momentum=0.1, affine=True, track_running_stats=True)
      (conv): mfm(
        (filter): Conv2d(12, 8, kernel_size=(3, 3), stride=(1, 1), padding=(1, 1))
      )
    )
    (1): BatchNorm2d(4, eps=1e-05, momentum=0.1, affine=True, track_running_stats=True)
    (2): group(
      (conv_a): mfm(
        (filter): Conv2d(4, 8, kernel_size=(1, 1), stride=(1, 1))
      )
      (bn): BatchNorm2d(4, eps=1e-05, momentum=0.1, affine=True, track_running_stats=True)
      (conv): mfm(
        (filter): Conv2d(4, 8, kernel_size=(3, 3), stride=(1, 1), padding=(1, 1))
      )
    )
    (3): MaxPool2d(kernel_size=2, stride=2, padding=0, dilation=1, ceil_mode=False)
  )
  (fc1): Sequential(
    (0): mfm(
      (filter): Sequential(
        (0): Linear(in_features=7844, out_features=64, bias=True)
        (1): Dropout(p=0.75, inplace=False)
      )
    )
    (1): BatchNorm1d(32, eps=1e-05, momentum=0.1, affine=True, track_running_stats=True)
  )
  (fc2): AngleLinear()
)
Trainable parameters: 509072
2020-05-05 21:20:37,580 - evaluation - INFO - Loading checkpoint: /home/dlcmu09/Fake-Audio-Detection/lcnn/AdvAttacksASVspoof/_saved/models/LA_lcnnHalf_LPSseg_uf_seg600/20200502_030052/model_best.pth ...
2020-05-06 15:29:15,346 - evaluation - INFO - LCNN(
  (layer1): Sequential(
    (0): mfm(
      (filter): Conv2d(1, 16, kernel_size=(5, 5), stride=(1, 1), padding=(2, 2))
    )
    (1): MaxPool2d(kernel_size=2, stride=2, padding=0, dilation=1, ceil_mode=False)
  )
  (layer2): Sequential(
    (0): group(
      (conv_a): mfm(
        (filter): Conv2d(8, 16, kernel_size=(1, 1), stride=(1, 1))
      )
      (bn): BatchNorm2d(8, eps=1e-05, momentum=0.1, affine=True, track_running_stats=True)
      (conv): mfm(
        (filter): Conv2d(8, 24, kernel_size=(3, 3), stride=(1, 1), padding=(1, 1))
      )
    )
    (1): MaxPool2d(kernel_size=2, stride=2, padding=0, dilation=1, ceil_mode=False)
    (2): BatchNorm2d(12, eps=1e-05, momentum=0.1, affine=True, track_running_stats=True)
  )
  (layer3): Sequential(
    (0): group(
      (conv_a): mfm(
        (filter): Conv2d(12, 24, kernel_size=(1, 1), stride=(1, 1))
      )
      (bn): BatchNorm2d(12, eps=1e-05, momentum=0.1, affine=True, track_running_stats=True)
      (conv): mfm(
        (filter): Conv2d(12, 24, kernel_size=(3, 3), stride=(1, 1), padding=(1, 1))
      )
    )
    (1): MaxPool2d(kernel_size=2, stride=2, padding=0, dilation=1, ceil_mode=False)
  )
  (layer4): Sequential(
    (0): group(
      (conv_a): mfm(
        (filter): Conv2d(12, 24, kernel_size=(1, 1), stride=(1, 1))
      )
      (bn): BatchNorm2d(12, eps=1e-05, momentum=0.1, affine=True, track_running_stats=True)
      (conv): mfm(
        (filter): Conv2d(12, 8, kernel_size=(3, 3), stride=(1, 1), padding=(1, 1))
      )
    )
    (1): BatchNorm2d(4, eps=1e-05, momentum=0.1, affine=True, track_running_stats=True)
    (2): group(
      (conv_a): mfm(
        (filter): Conv2d(4, 8, kernel_size=(1, 1), stride=(1, 1))
      )
      (bn): BatchNorm2d(4, eps=1e-05, momentum=0.1, affine=True, track_running_stats=True)
      (conv): mfm(
        (filter): Conv2d(4, 8, kernel_size=(3, 3), stride=(1, 1), padding=(1, 1))
      )
    )
    (3): MaxPool2d(kernel_size=2, stride=2, padding=0, dilation=1, ceil_mode=False)
  )
  (fc1): Sequential(
    (0): mfm(
      (filter): Sequential(
        (0): Linear(in_features=7844, out_features=64, bias=True)
        (1): Dropout(p=0.75, inplace=False)
      )
    )
    (1): BatchNorm1d(32, eps=1e-05, momentum=0.1, affine=True, track_running_stats=True)
  )
  (fc2): AngleLinear()
)
Trainable parameters: 509072
2020-05-06 15:29:15,351 - evaluation - INFO - Loading checkpoint: /home/dlcmu09/Fake-Audio-Detection/lcnn/AdvAttacksASVspoof/_saved/models/LA_lcnnHalf_LPSseg_uf_seg600/20200502_030052/model_best.pth ...
2020-05-06 16:19:32,972 - evaluation - INFO - LCNN(
  (layer1): Sequential(
    (0): mfm(
      (filter): Conv2d(1, 16, kernel_size=(5, 5), stride=(1, 1), padding=(2, 2))
    )
    (1): MaxPool2d(kernel_size=2, stride=2, padding=0, dilation=1, ceil_mode=False)
  )
  (layer2): Sequential(
    (0): group(
      (conv_a): mfm(
        (filter): Conv2d(8, 16, kernel_size=(1, 1), stride=(1, 1))
      )
      (bn): BatchNorm2d(8, eps=1e-05, momentum=0.1, affine=True, track_running_stats=True)
      (conv): mfm(
        (filter): Conv2d(8, 24, kernel_size=(3, 3), stride=(1, 1), padding=(1, 1))
      )
    )
    (1): MaxPool2d(kernel_size=2, stride=2, padding=0, dilation=1, ceil_mode=False)
    (2): BatchNorm2d(12, eps=1e-05, momentum=0.1, affine=True, track_running_stats=True)
  )
  (layer3): Sequential(
    (0): group(
      (conv_a): mfm(
        (filter): Conv2d(12, 24, kernel_size=(1, 1), stride=(1, 1))
      )
      (bn): BatchNorm2d(12, eps=1e-05, momentum=0.1, affine=True, track_running_stats=True)
      (conv): mfm(
        (filter): Conv2d(12, 24, kernel_size=(3, 3), stride=(1, 1), padding=(1, 1))
      )
    )
    (1): MaxPool2d(kernel_size=2, stride=2, padding=0, dilation=1, ceil_mode=False)
  )
  (layer4): Sequential(
    (0): group(
      (conv_a): mfm(
        (filter): Conv2d(12, 24, kernel_size=(1, 1), stride=(1, 1))
      )
      (bn): BatchNorm2d(12, eps=1e-05, momentum=0.1, affine=True, track_running_stats=True)
      (conv): mfm(
        (filter): Conv2d(12, 8, kernel_size=(3, 3), stride=(1, 1), padding=(1, 1))
      )
    )
    (1): BatchNorm2d(4, eps=1e-05, momentum=0.1, affine=True, track_running_stats=True)
    (2): group(
      (conv_a): mfm(
        (filter): Conv2d(4, 8, kernel_size=(1, 1), stride=(1, 1))
      )
      (bn): BatchNorm2d(4, eps=1e-05, momentum=0.1, affine=True, track_running_stats=True)
      (conv): mfm(
        (filter): Conv2d(4, 8, kernel_size=(3, 3), stride=(1, 1), padding=(1, 1))
      )
    )
    (3): MaxPool2d(kernel_size=2, stride=2, padding=0, dilation=1, ceil_mode=False)
  )
  (fc1): Sequential(
    (0): mfm(
      (filter): Sequential(
        (0): Linear(in_features=7844, out_features=64, bias=True)
        (1): Dropout(p=0.75, inplace=False)
      )
    )
    (1): BatchNorm1d(32, eps=1e-05, momentum=0.1, affine=True, track_running_stats=True)
  )
  (fc2): AngleLinear()
)
Trainable parameters: 509072
2020-05-06 16:19:32,984 - evaluation - INFO - Loading checkpoint: _saved/models/LA_lcnnHalf_LPSseg_uf_seg600/20200502_030052/model_best.pth ...
2020-05-06 16:21:54,995 - evaluation - INFO - {'accuracy': 0.9644699140401146}
2020-05-06 16:23:08,678 - evaluation - INFO - LCNN(
  (layer1): Sequential(
    (0): mfm(
      (filter): Conv2d(1, 16, kernel_size=(5, 5), stride=(1, 1), padding=(2, 2))
    )
    (1): MaxPool2d(kernel_size=2, stride=2, padding=0, dilation=1, ceil_mode=False)
  )
  (layer2): Sequential(
    (0): group(
      (conv_a): mfm(
        (filter): Conv2d(8, 16, kernel_size=(1, 1), stride=(1, 1))
      )
      (bn): BatchNorm2d(8, eps=1e-05, momentum=0.1, affine=True, track_running_stats=True)
      (conv): mfm(
        (filter): Conv2d(8, 24, kernel_size=(3, 3), stride=(1, 1), padding=(1, 1))
      )
    )
    (1): MaxPool2d(kernel_size=2, stride=2, padding=0, dilation=1, ceil_mode=False)
    (2): BatchNorm2d(12, eps=1e-05, momentum=0.1, affine=True, track_running_stats=True)
  )
  (layer3): Sequential(
    (0): group(
      (conv_a): mfm(
        (filter): Conv2d(12, 24, kernel_size=(1, 1), stride=(1, 1))
      )
      (bn): BatchNorm2d(12, eps=1e-05, momentum=0.1, affine=True, track_running_stats=True)
      (conv): mfm(
        (filter): Conv2d(12, 24, kernel_size=(3, 3), stride=(1, 1), padding=(1, 1))
      )
    )
    (1): MaxPool2d(kernel_size=2, stride=2, padding=0, dilation=1, ceil_mode=False)
  )
  (layer4): Sequential(
    (0): group(
      (conv_a): mfm(
        (filter): Conv2d(12, 24, kernel_size=(1, 1), stride=(1, 1))
      )
      (bn): BatchNorm2d(12, eps=1e-05, momentum=0.1, affine=True, track_running_stats=True)
      (conv): mfm(
        (filter): Conv2d(12, 8, kernel_size=(3, 3), stride=(1, 1), padding=(1, 1))
      )
    )
    (1): BatchNorm2d(4, eps=1e-05, momentum=0.1, affine=True, track_running_stats=True)
    (2): group(
      (conv_a): mfm(
        (filter): Conv2d(4, 8, kernel_size=(1, 1), stride=(1, 1))
      )
      (bn): BatchNorm2d(4, eps=1e-05, momentum=0.1, affine=True, track_running_stats=True)
      (conv): mfm(
        (filter): Conv2d(4, 8, kernel_size=(3, 3), stride=(1, 1), padding=(1, 1))
      )
    )
    (3): MaxPool2d(kernel_size=2, stride=2, padding=0, dilation=1, ceil_mode=False)
  )
  (fc1): Sequential(
    (0): mfm(
      (filter): Sequential(
        (0): Linear(in_features=7844, out_features=64, bias=True)
        (1): Dropout(p=0.75, inplace=False)
      )
    )
    (1): BatchNorm1d(32, eps=1e-05, momentum=0.1, affine=True, track_running_stats=True)
  )
  (fc2): AngleLinear()
)
Trainable parameters: 509072
2020-05-06 16:23:08,681 - evaluation - INFO - Loading checkpoint: _saved/models/LA_lcnnHalf_LPSseg_uf_seg600/20200502_030052/model_best.pth ...
2020-05-06 16:23:32,108 - evaluation - INFO - {'accuracy': 0.9644699140401146}
2020-05-06 16:28:44,924 - evaluation - INFO - LCNN(
  (layer1): Sequential(
    (0): mfm(
      (filter): Conv2d(1, 16, kernel_size=(5, 5), stride=(1, 1), padding=(2, 2))
    )
    (1): MaxPool2d(kernel_size=2, stride=2, padding=0, dilation=1, ceil_mode=False)
  )
  (layer2): Sequential(
    (0): group(
      (conv_a): mfm(
        (filter): Conv2d(8, 16, kernel_size=(1, 1), stride=(1, 1))
      )
      (bn): BatchNorm2d(8, eps=1e-05, momentum=0.1, affine=True, track_running_stats=True)
      (conv): mfm(
        (filter): Conv2d(8, 24, kernel_size=(3, 3), stride=(1, 1), padding=(1, 1))
      )
    )
    (1): MaxPool2d(kernel_size=2, stride=2, padding=0, dilation=1, ceil_mode=False)
    (2): BatchNorm2d(12, eps=1e-05, momentum=0.1, affine=True, track_running_stats=True)
  )
  (layer3): Sequential(
    (0): group(
      (conv_a): mfm(
        (filter): Conv2d(12, 24, kernel_size=(1, 1), stride=(1, 1))
      )
      (bn): BatchNorm2d(12, eps=1e-05, momentum=0.1, affine=True, track_running_stats=True)
      (conv): mfm(
        (filter): Conv2d(12, 24, kernel_size=(3, 3), stride=(1, 1), padding=(1, 1))
      )
    )
    (1): MaxPool2d(kernel_size=2, stride=2, padding=0, dilation=1, ceil_mode=False)
  )
  (layer4): Sequential(
    (0): group(
      (conv_a): mfm(
        (filter): Conv2d(12, 24, kernel_size=(1, 1), stride=(1, 1))
      )
      (bn): BatchNorm2d(12, eps=1e-05, momentum=0.1, affine=True, track_running_stats=True)
      (conv): mfm(
        (filter): Conv2d(12, 8, kernel_size=(3, 3), stride=(1, 1), padding=(1, 1))
      )
    )
    (1): BatchNorm2d(4, eps=1e-05, momentum=0.1, affine=True, track_running_stats=True)
    (2): group(
      (conv_a): mfm(
        (filter): Conv2d(4, 8, kernel_size=(1, 1), stride=(1, 1))
      )
      (bn): BatchNorm2d(4, eps=1e-05, momentum=0.1, affine=True, track_running_stats=True)
      (conv): mfm(
        (filter): Conv2d(4, 8, kernel_size=(3, 3), stride=(1, 1), padding=(1, 1))
      )
    )
    (3): MaxPool2d(kernel_size=2, stride=2, padding=0, dilation=1, ceil_mode=False)
  )
  (fc1): Sequential(
    (0): mfm(
      (filter): Sequential(
        (0): Linear(in_features=7844, out_features=64, bias=True)
        (1): Dropout(p=0.75, inplace=False)
      )
    )
    (1): BatchNorm1d(32, eps=1e-05, momentum=0.1, affine=True, track_running_stats=True)
  )
  (fc2): AngleLinear()
)
Trainable parameters: 509072
2020-05-06 16:28:44,927 - evaluation - INFO - Loading checkpoint: _saved/models/LA_lcnnHalf_LPSseg_uf_seg600/20200502_030052/model_best.pth ...
2020-05-06 16:29:08,383 - evaluation - INFO - {'accuracy': 0.9644699140401146}
2020-05-06 16:30:18,790 - evaluation - INFO - LCNN(
  (layer1): Sequential(
    (0): mfm(
      (filter): Conv2d(1, 16, kernel_size=(5, 5), stride=(1, 1), padding=(2, 2))
    )
    (1): MaxPool2d(kernel_size=2, stride=2, padding=0, dilation=1, ceil_mode=False)
  )
  (layer2): Sequential(
    (0): group(
      (conv_a): mfm(
        (filter): Conv2d(8, 16, kernel_size=(1, 1), stride=(1, 1))
      )
      (bn): BatchNorm2d(8, eps=1e-05, momentum=0.1, affine=True, track_running_stats=True)
      (conv): mfm(
        (filter): Conv2d(8, 24, kernel_size=(3, 3), stride=(1, 1), padding=(1, 1))
      )
    )
    (1): MaxPool2d(kernel_size=2, stride=2, padding=0, dilation=1, ceil_mode=False)
    (2): BatchNorm2d(12, eps=1e-05, momentum=0.1, affine=True, track_running_stats=True)
  )
  (layer3): Sequential(
    (0): group(
      (conv_a): mfm(
        (filter): Conv2d(12, 24, kernel_size=(1, 1), stride=(1, 1))
      )
      (bn): BatchNorm2d(12, eps=1e-05, momentum=0.1, affine=True, track_running_stats=True)
      (conv): mfm(
        (filter): Conv2d(12, 24, kernel_size=(3, 3), stride=(1, 1), padding=(1, 1))
      )
    )
    (1): MaxPool2d(kernel_size=2, stride=2, padding=0, dilation=1, ceil_mode=False)
  )
  (layer4): Sequential(
    (0): group(
      (conv_a): mfm(
        (filter): Conv2d(12, 24, kernel_size=(1, 1), stride=(1, 1))
      )
      (bn): BatchNorm2d(12, eps=1e-05, momentum=0.1, affine=True, track_running_stats=True)
      (conv): mfm(
        (filter): Conv2d(12, 8, kernel_size=(3, 3), stride=(1, 1), padding=(1, 1))
      )
    )
    (1): BatchNorm2d(4, eps=1e-05, momentum=0.1, affine=True, track_running_stats=True)
    (2): group(
      (conv_a): mfm(
        (filter): Conv2d(4, 8, kernel_size=(1, 1), stride=(1, 1))
      )
      (bn): BatchNorm2d(4, eps=1e-05, momentum=0.1, affine=True, track_running_stats=True)
      (conv): mfm(
        (filter): Conv2d(4, 8, kernel_size=(3, 3), stride=(1, 1), padding=(1, 1))
      )
    )
    (3): MaxPool2d(kernel_size=2, stride=2, padding=0, dilation=1, ceil_mode=False)
  )
  (fc1): Sequential(
    (0): mfm(
      (filter): Sequential(
        (0): Linear(in_features=7844, out_features=64, bias=True)
        (1): Dropout(p=0.75, inplace=False)
      )
    )
    (1): BatchNorm1d(32, eps=1e-05, momentum=0.1, affine=True, track_running_stats=True)
  )
  (fc2): AngleLinear()
)
Trainable parameters: 509072
2020-05-06 16:30:18,792 - evaluation - INFO - Loading checkpoint: _saved/models/LA_lcnnHalf_LPSseg_uf_seg600/20200502_030052/model_best.pth ...
2020-05-06 16:30:42,439 - evaluation - INFO - {'accuracy': 0.9644699140401146}
2020-05-06 16:36:02,632 - evaluation - INFO - LCNN(
  (layer1): Sequential(
    (0): mfm(
      (filter): Conv2d(1, 16, kernel_size=(5, 5), stride=(1, 1), padding=(2, 2))
    )
    (1): MaxPool2d(kernel_size=2, stride=2, padding=0, dilation=1, ceil_mode=False)
  )
  (layer2): Sequential(
    (0): group(
      (conv_a): mfm(
        (filter): Conv2d(8, 16, kernel_size=(1, 1), stride=(1, 1))
      )
      (bn): BatchNorm2d(8, eps=1e-05, momentum=0.1, affine=True, track_running_stats=True)
      (conv): mfm(
        (filter): Conv2d(8, 24, kernel_size=(3, 3), stride=(1, 1), padding=(1, 1))
      )
    )
    (1): MaxPool2d(kernel_size=2, stride=2, padding=0, dilation=1, ceil_mode=False)
    (2): BatchNorm2d(12, eps=1e-05, momentum=0.1, affine=True, track_running_stats=True)
  )
  (layer3): Sequential(
    (0): group(
      (conv_a): mfm(
        (filter): Conv2d(12, 24, kernel_size=(1, 1), stride=(1, 1))
      )
      (bn): BatchNorm2d(12, eps=1e-05, momentum=0.1, affine=True, track_running_stats=True)
      (conv): mfm(
        (filter): Conv2d(12, 24, kernel_size=(3, 3), stride=(1, 1), padding=(1, 1))
      )
    )
    (1): MaxPool2d(kernel_size=2, stride=2, padding=0, dilation=1, ceil_mode=False)
  )
  (layer4): Sequential(
    (0): group(
      (conv_a): mfm(
        (filter): Conv2d(12, 24, kernel_size=(1, 1), stride=(1, 1))
      )
      (bn): BatchNorm2d(12, eps=1e-05, momentum=0.1, affine=True, track_running_stats=True)
      (conv): mfm(
        (filter): Conv2d(12, 8, kernel_size=(3, 3), stride=(1, 1), padding=(1, 1))
      )
    )
    (1): BatchNorm2d(4, eps=1e-05, momentum=0.1, affine=True, track_running_stats=True)
    (2): group(
      (conv_a): mfm(
        (filter): Conv2d(4, 8, kernel_size=(1, 1), stride=(1, 1))
      )
      (bn): BatchNorm2d(4, eps=1e-05, momentum=0.1, affine=True, track_running_stats=True)
      (conv): mfm(
        (filter): Conv2d(4, 8, kernel_size=(3, 3), stride=(1, 1), padding=(1, 1))
      )
    )
    (3): MaxPool2d(kernel_size=2, stride=2, padding=0, dilation=1, ceil_mode=False)
  )
  (fc1): Sequential(
    (0): mfm(
      (filter): Sequential(
        (0): Linear(in_features=7844, out_features=64, bias=True)
        (1): Dropout(p=0.75, inplace=False)
      )
    )
    (1): BatchNorm1d(32, eps=1e-05, momentum=0.1, affine=True, track_running_stats=True)
  )
  (fc2): AngleLinear()
)
Trainable parameters: 509072
2020-05-06 16:36:02,634 - evaluation - INFO - Loading checkpoint: _saved/models/LA_lcnnHalf_LPSseg_uf_seg600/20200502_030052/model_best.pth ...
2020-05-06 16:36:27,010 - evaluation - INFO - {'accuracy': 0.9644699140401146}
2020-05-06 16:37:28,808 - evaluation - INFO - LCNN(
  (layer1): Sequential(
    (0): mfm(
      (filter): Conv2d(1, 16, kernel_size=(5, 5), stride=(1, 1), padding=(2, 2))
    )
    (1): MaxPool2d(kernel_size=2, stride=2, padding=0, dilation=1, ceil_mode=False)
  )
  (layer2): Sequential(
    (0): group(
      (conv_a): mfm(
        (filter): Conv2d(8, 16, kernel_size=(1, 1), stride=(1, 1))
      )
      (bn): BatchNorm2d(8, eps=1e-05, momentum=0.1, affine=True, track_running_stats=True)
      (conv): mfm(
        (filter): Conv2d(8, 24, kernel_size=(3, 3), stride=(1, 1), padding=(1, 1))
      )
    )
    (1): MaxPool2d(kernel_size=2, stride=2, padding=0, dilation=1, ceil_mode=False)
    (2): BatchNorm2d(12, eps=1e-05, momentum=0.1, affine=True, track_running_stats=True)
  )
  (layer3): Sequential(
    (0): group(
      (conv_a): mfm(
        (filter): Conv2d(12, 24, kernel_size=(1, 1), stride=(1, 1))
      )
      (bn): BatchNorm2d(12, eps=1e-05, momentum=0.1, affine=True, track_running_stats=True)
      (conv): mfm(
        (filter): Conv2d(12, 24, kernel_size=(3, 3), stride=(1, 1), padding=(1, 1))
      )
    )
    (1): MaxPool2d(kernel_size=2, stride=2, padding=0, dilation=1, ceil_mode=False)
  )
  (layer4): Sequential(
    (0): group(
      (conv_a): mfm(
        (filter): Conv2d(12, 24, kernel_size=(1, 1), stride=(1, 1))
      )
      (bn): BatchNorm2d(12, eps=1e-05, momentum=0.1, affine=True, track_running_stats=True)
      (conv): mfm(
        (filter): Conv2d(12, 8, kernel_size=(3, 3), stride=(1, 1), padding=(1, 1))
      )
    )
    (1): BatchNorm2d(4, eps=1e-05, momentum=0.1, affine=True, track_running_stats=True)
    (2): group(
      (conv_a): mfm(
        (filter): Conv2d(4, 8, kernel_size=(1, 1), stride=(1, 1))
      )
      (bn): BatchNorm2d(4, eps=1e-05, momentum=0.1, affine=True, track_running_stats=True)
      (conv): mfm(
        (filter): Conv2d(4, 8, kernel_size=(3, 3), stride=(1, 1), padding=(1, 1))
      )
    )
    (3): MaxPool2d(kernel_size=2, stride=2, padding=0, dilation=1, ceil_mode=False)
  )
  (fc1): Sequential(
    (0): mfm(
      (filter): Sequential(
        (0): Linear(in_features=7844, out_features=64, bias=True)
        (1): Dropout(p=0.75, inplace=False)
      )
    )
    (1): BatchNorm1d(32, eps=1e-05, momentum=0.1, affine=True, track_running_stats=True)
  )
  (fc2): AngleLinear()
)
Trainable parameters: 509072
2020-05-06 16:37:28,811 - evaluation - INFO - Loading checkpoint: _saved/models/LA_lcnnHalf_LPSseg_uf_seg600/20200502_030052/model_best.pth ...
2020-05-06 16:37:52,865 - evaluation - INFO - {'accuracy': 0.9644699140401146}
2020-05-06 16:41:26,529 - evaluation - INFO - LCNN(
  (layer1): Sequential(
    (0): mfm(
      (filter): Conv2d(1, 16, kernel_size=(5, 5), stride=(1, 1), padding=(2, 2))
    )
    (1): MaxPool2d(kernel_size=2, stride=2, padding=0, dilation=1, ceil_mode=False)
  )
  (layer2): Sequential(
    (0): group(
      (conv_a): mfm(
        (filter): Conv2d(8, 16, kernel_size=(1, 1), stride=(1, 1))
      )
      (bn): BatchNorm2d(8, eps=1e-05, momentum=0.1, affine=True, track_running_stats=True)
      (conv): mfm(
        (filter): Conv2d(8, 24, kernel_size=(3, 3), stride=(1, 1), padding=(1, 1))
      )
    )
    (1): MaxPool2d(kernel_size=2, stride=2, padding=0, dilation=1, ceil_mode=False)
    (2): BatchNorm2d(12, eps=1e-05, momentum=0.1, affine=True, track_running_stats=True)
  )
  (layer3): Sequential(
    (0): group(
      (conv_a): mfm(
        (filter): Conv2d(12, 24, kernel_size=(1, 1), stride=(1, 1))
      )
      (bn): BatchNorm2d(12, eps=1e-05, momentum=0.1, affine=True, track_running_stats=True)
      (conv): mfm(
        (filter): Conv2d(12, 24, kernel_size=(3, 3), stride=(1, 1), padding=(1, 1))
      )
    )
    (1): MaxPool2d(kernel_size=2, stride=2, padding=0, dilation=1, ceil_mode=False)
  )
  (layer4): Sequential(
    (0): group(
      (conv_a): mfm(
        (filter): Conv2d(12, 24, kernel_size=(1, 1), stride=(1, 1))
      )
      (bn): BatchNorm2d(12, eps=1e-05, momentum=0.1, affine=True, track_running_stats=True)
      (conv): mfm(
        (filter): Conv2d(12, 8, kernel_size=(3, 3), stride=(1, 1), padding=(1, 1))
      )
    )
    (1): BatchNorm2d(4, eps=1e-05, momentum=0.1, affine=True, track_running_stats=True)
    (2): group(
      (conv_a): mfm(
        (filter): Conv2d(4, 8, kernel_size=(1, 1), stride=(1, 1))
      )
      (bn): BatchNorm2d(4, eps=1e-05, momentum=0.1, affine=True, track_running_stats=True)
      (conv): mfm(
        (filter): Conv2d(4, 8, kernel_size=(3, 3), stride=(1, 1), padding=(1, 1))
      )
    )
    (3): MaxPool2d(kernel_size=2, stride=2, padding=0, dilation=1, ceil_mode=False)
  )
  (fc1): Sequential(
    (0): mfm(
      (filter): Sequential(
        (0): Linear(in_features=7844, out_features=64, bias=True)
        (1): Dropout(p=0.75, inplace=False)
      )
    )
    (1): BatchNorm1d(32, eps=1e-05, momentum=0.1, affine=True, track_running_stats=True)
  )
  (fc2): AngleLinear()
)
Trainable parameters: 509072
2020-05-06 16:41:26,532 - evaluation - INFO - Loading checkpoint: _saved/models/LA_lcnnHalf_LPSseg_uf_seg600/20200502_030052/model_best.pth ...
2020-05-06 16:41:50,921 - evaluation - INFO - {'accuracy': 0.9644699140401146}
2020-05-06 16:44:29,472 - evaluation - INFO - LCNN(
  (layer1): Sequential(
    (0): mfm(
      (filter): Conv2d(1, 16, kernel_size=(5, 5), stride=(1, 1), padding=(2, 2))
    )
    (1): MaxPool2d(kernel_size=2, stride=2, padding=0, dilation=1, ceil_mode=False)
  )
  (layer2): Sequential(
    (0): group(
      (conv_a): mfm(
        (filter): Conv2d(8, 16, kernel_size=(1, 1), stride=(1, 1))
      )
      (bn): BatchNorm2d(8, eps=1e-05, momentum=0.1, affine=True, track_running_stats=True)
      (conv): mfm(
        (filter): Conv2d(8, 24, kernel_size=(3, 3), stride=(1, 1), padding=(1, 1))
      )
    )
    (1): MaxPool2d(kernel_size=2, stride=2, padding=0, dilation=1, ceil_mode=False)
    (2): BatchNorm2d(12, eps=1e-05, momentum=0.1, affine=True, track_running_stats=True)
  )
  (layer3): Sequential(
    (0): group(
      (conv_a): mfm(
        (filter): Conv2d(12, 24, kernel_size=(1, 1), stride=(1, 1))
      )
      (bn): BatchNorm2d(12, eps=1e-05, momentum=0.1, affine=True, track_running_stats=True)
      (conv): mfm(
        (filter): Conv2d(12, 24, kernel_size=(3, 3), stride=(1, 1), padding=(1, 1))
      )
    )
    (1): MaxPool2d(kernel_size=2, stride=2, padding=0, dilation=1, ceil_mode=False)
  )
  (layer4): Sequential(
    (0): group(
      (conv_a): mfm(
        (filter): Conv2d(12, 24, kernel_size=(1, 1), stride=(1, 1))
      )
      (bn): BatchNorm2d(12, eps=1e-05, momentum=0.1, affine=True, track_running_stats=True)
      (conv): mfm(
        (filter): Conv2d(12, 8, kernel_size=(3, 3), stride=(1, 1), padding=(1, 1))
      )
    )
    (1): BatchNorm2d(4, eps=1e-05, momentum=0.1, affine=True, track_running_stats=True)
    (2): group(
      (conv_a): mfm(
        (filter): Conv2d(4, 8, kernel_size=(1, 1), stride=(1, 1))
      )
      (bn): BatchNorm2d(4, eps=1e-05, momentum=0.1, affine=True, track_running_stats=True)
      (conv): mfm(
        (filter): Conv2d(4, 8, kernel_size=(3, 3), stride=(1, 1), padding=(1, 1))
      )
    )
    (3): MaxPool2d(kernel_size=2, stride=2, padding=0, dilation=1, ceil_mode=False)
  )
  (fc1): Sequential(
    (0): mfm(
      (filter): Sequential(
        (0): Linear(in_features=7844, out_features=64, bias=True)
        (1): Dropout(p=0.75, inplace=False)
      )
    )
    (1): BatchNorm1d(32, eps=1e-05, momentum=0.1, affine=True, track_running_stats=True)
  )
  (fc2): AngleLinear()
)
Trainable parameters: 509072
2020-05-06 16:44:29,475 - evaluation - INFO - Loading checkpoint: _saved/models/LA_lcnnHalf_LPSseg_uf_seg600/20200502_030052/model_best.pth ...
2020-05-06 16:44:53,601 - evaluation - INFO - {'accuracy': 0.9644699140401146}
2020-05-06 16:45:51,365 - evaluation - INFO - LCNN(
  (layer1): Sequential(
    (0): mfm(
      (filter): Conv2d(1, 16, kernel_size=(5, 5), stride=(1, 1), padding=(2, 2))
    )
    (1): MaxPool2d(kernel_size=2, stride=2, padding=0, dilation=1, ceil_mode=False)
  )
  (layer2): Sequential(
    (0): group(
      (conv_a): mfm(
        (filter): Conv2d(8, 16, kernel_size=(1, 1), stride=(1, 1))
      )
      (bn): BatchNorm2d(8, eps=1e-05, momentum=0.1, affine=True, track_running_stats=True)
      (conv): mfm(
        (filter): Conv2d(8, 24, kernel_size=(3, 3), stride=(1, 1), padding=(1, 1))
      )
    )
    (1): MaxPool2d(kernel_size=2, stride=2, padding=0, dilation=1, ceil_mode=False)
    (2): BatchNorm2d(12, eps=1e-05, momentum=0.1, affine=True, track_running_stats=True)
  )
  (layer3): Sequential(
    (0): group(
      (conv_a): mfm(
        (filter): Conv2d(12, 24, kernel_size=(1, 1), stride=(1, 1))
      )
      (bn): BatchNorm2d(12, eps=1e-05, momentum=0.1, affine=True, track_running_stats=True)
      (conv): mfm(
        (filter): Conv2d(12, 24, kernel_size=(3, 3), stride=(1, 1), padding=(1, 1))
      )
    )
    (1): MaxPool2d(kernel_size=2, stride=2, padding=0, dilation=1, ceil_mode=False)
  )
  (layer4): Sequential(
    (0): group(
      (conv_a): mfm(
        (filter): Conv2d(12, 24, kernel_size=(1, 1), stride=(1, 1))
      )
      (bn): BatchNorm2d(12, eps=1e-05, momentum=0.1, affine=True, track_running_stats=True)
      (conv): mfm(
        (filter): Conv2d(12, 8, kernel_size=(3, 3), stride=(1, 1), padding=(1, 1))
      )
    )
    (1): BatchNorm2d(4, eps=1e-05, momentum=0.1, affine=True, track_running_stats=True)
    (2): group(
      (conv_a): mfm(
        (filter): Conv2d(4, 8, kernel_size=(1, 1), stride=(1, 1))
      )
      (bn): BatchNorm2d(4, eps=1e-05, momentum=0.1, affine=True, track_running_stats=True)
      (conv): mfm(
        (filter): Conv2d(4, 8, kernel_size=(3, 3), stride=(1, 1), padding=(1, 1))
      )
    )
    (3): MaxPool2d(kernel_size=2, stride=2, padding=0, dilation=1, ceil_mode=False)
  )
  (fc1): Sequential(
    (0): mfm(
      (filter): Sequential(
        (0): Linear(in_features=7844, out_features=64, bias=True)
        (1): Dropout(p=0.75, inplace=False)
      )
    )
    (1): BatchNorm1d(32, eps=1e-05, momentum=0.1, affine=True, track_running_stats=True)
  )
  (fc2): AngleLinear()
)
Trainable parameters: 509072
2020-05-06 16:45:51,368 - evaluation - INFO - Loading checkpoint: _saved/models/LA_lcnnHalf_LPSseg_uf_seg600/20200502_030052/model_best.pth ...
2020-05-06 16:46:15,543 - evaluation - INFO - {'accuracy': 0.9644699140401146}
2020-05-06 16:46:15,597 - evaluation - INFO - {'min-tDCF': 0, 'EER': 0, 'EER_point': -0.24779729545116425}
2020-05-06 16:49:02,653 - evaluation - INFO - LCNN(
  (layer1): Sequential(
    (0): mfm(
      (filter): Conv2d(1, 16, kernel_size=(5, 5), stride=(1, 1), padding=(2, 2))
    )
    (1): MaxPool2d(kernel_size=2, stride=2, padding=0, dilation=1, ceil_mode=False)
  )
  (layer2): Sequential(
    (0): group(
      (conv_a): mfm(
        (filter): Conv2d(8, 16, kernel_size=(1, 1), stride=(1, 1))
      )
      (bn): BatchNorm2d(8, eps=1e-05, momentum=0.1, affine=True, track_running_stats=True)
      (conv): mfm(
        (filter): Conv2d(8, 24, kernel_size=(3, 3), stride=(1, 1), padding=(1, 1))
      )
    )
    (1): MaxPool2d(kernel_size=2, stride=2, padding=0, dilation=1, ceil_mode=False)
    (2): BatchNorm2d(12, eps=1e-05, momentum=0.1, affine=True, track_running_stats=True)
  )
  (layer3): Sequential(
    (0): group(
      (conv_a): mfm(
        (filter): Conv2d(12, 24, kernel_size=(1, 1), stride=(1, 1))
      )
      (bn): BatchNorm2d(12, eps=1e-05, momentum=0.1, affine=True, track_running_stats=True)
      (conv): mfm(
        (filter): Conv2d(12, 24, kernel_size=(3, 3), stride=(1, 1), padding=(1, 1))
      )
    )
    (1): MaxPool2d(kernel_size=2, stride=2, padding=0, dilation=1, ceil_mode=False)
  )
  (layer4): Sequential(
    (0): group(
      (conv_a): mfm(
        (filter): Conv2d(12, 24, kernel_size=(1, 1), stride=(1, 1))
      )
      (bn): BatchNorm2d(12, eps=1e-05, momentum=0.1, affine=True, track_running_stats=True)
      (conv): mfm(
        (filter): Conv2d(12, 8, kernel_size=(3, 3), stride=(1, 1), padding=(1, 1))
      )
    )
    (1): BatchNorm2d(4, eps=1e-05, momentum=0.1, affine=True, track_running_stats=True)
    (2): group(
      (conv_a): mfm(
        (filter): Conv2d(4, 8, kernel_size=(1, 1), stride=(1, 1))
      )
      (bn): BatchNorm2d(4, eps=1e-05, momentum=0.1, affine=True, track_running_stats=True)
      (conv): mfm(
        (filter): Conv2d(4, 8, kernel_size=(3, 3), stride=(1, 1), padding=(1, 1))
      )
    )
    (3): MaxPool2d(kernel_size=2, stride=2, padding=0, dilation=1, ceil_mode=False)
  )
  (fc1): Sequential(
    (0): mfm(
      (filter): Sequential(
        (0): Linear(in_features=7844, out_features=64, bias=True)
        (1): Dropout(p=0.75, inplace=False)
      )
    )
    (1): BatchNorm1d(32, eps=1e-05, momentum=0.1, affine=True, track_running_stats=True)
  )
  (fc2): AngleLinear()
)
Trainable parameters: 509072
2020-05-06 16:49:02,656 - evaluation - INFO - Loading checkpoint: _saved/models/LA_lcnnHalf_LPSseg_uf_seg600/20200502_030052/model_best.pth ...
2020-05-06 16:49:26,312 - evaluation - INFO - {'accuracy': 0.9644699140401146}
2020-05-06 16:49:26,364 - evaluation - INFO - {'min-tDCF': 0, 'EER': 3.182553880228299, 'EER_point': -0.24779729545116425}
2020-05-06 16:54:24,635 - evaluation - INFO - LCNN(
  (layer1): Sequential(
    (0): mfm(
      (filter): Conv2d(1, 16, kernel_size=(5, 5), stride=(1, 1), padding=(2, 2))
    )
    (1): MaxPool2d(kernel_size=2, stride=2, padding=0, dilation=1, ceil_mode=False)
  )
  (layer2): Sequential(
    (0): group(
      (conv_a): mfm(
        (filter): Conv2d(8, 16, kernel_size=(1, 1), stride=(1, 1))
      )
      (bn): BatchNorm2d(8, eps=1e-05, momentum=0.1, affine=True, track_running_stats=True)
      (conv): mfm(
        (filter): Conv2d(8, 24, kernel_size=(3, 3), stride=(1, 1), padding=(1, 1))
      )
    )
    (1): MaxPool2d(kernel_size=2, stride=2, padding=0, dilation=1, ceil_mode=False)
    (2): BatchNorm2d(12, eps=1e-05, momentum=0.1, affine=True, track_running_stats=True)
  )
  (layer3): Sequential(
    (0): group(
      (conv_a): mfm(
        (filter): Conv2d(12, 24, kernel_size=(1, 1), stride=(1, 1))
      )
      (bn): BatchNorm2d(12, eps=1e-05, momentum=0.1, affine=True, track_running_stats=True)
      (conv): mfm(
        (filter): Conv2d(12, 24, kernel_size=(3, 3), stride=(1, 1), padding=(1, 1))
      )
    )
    (1): MaxPool2d(kernel_size=2, stride=2, padding=0, dilation=1, ceil_mode=False)
  )
  (layer4): Sequential(
    (0): group(
      (conv_a): mfm(
        (filter): Conv2d(12, 24, kernel_size=(1, 1), stride=(1, 1))
      )
      (bn): BatchNorm2d(12, eps=1e-05, momentum=0.1, affine=True, track_running_stats=True)
      (conv): mfm(
        (filter): Conv2d(12, 8, kernel_size=(3, 3), stride=(1, 1), padding=(1, 1))
      )
    )
    (1): BatchNorm2d(4, eps=1e-05, momentum=0.1, affine=True, track_running_stats=True)
    (2): group(
      (conv_a): mfm(
        (filter): Conv2d(4, 8, kernel_size=(1, 1), stride=(1, 1))
      )
      (bn): BatchNorm2d(4, eps=1e-05, momentum=0.1, affine=True, track_running_stats=True)
      (conv): mfm(
        (filter): Conv2d(4, 8, kernel_size=(3, 3), stride=(1, 1), padding=(1, 1))
      )
    )
    (3): MaxPool2d(kernel_size=2, stride=2, padding=0, dilation=1, ceil_mode=False)
  )
  (fc1): Sequential(
    (0): mfm(
      (filter): Sequential(
        (0): Linear(in_features=7844, out_features=64, bias=True)
        (1): Dropout(p=0.75, inplace=False)
      )
    )
    (1): BatchNorm1d(32, eps=1e-05, momentum=0.1, affine=True, track_running_stats=True)
  )
  (fc2): AngleLinear()
)
Trainable parameters: 509072
2020-05-06 16:54:24,638 - evaluation - INFO - Loading checkpoint: _saved/models/LA_lcnnHalf_LPSseg_uf_seg600/20200502_030052/model_best.pth ...
2020-05-06 16:54:48,805 - evaluation - INFO - {'accuracy': 0.9644699140401146}
2020-05-06 16:54:48,856 - evaluation - INFO - {'min-tDCF': 0, 'EER': 3.182553880228299, 'EER_point': -0.24779729545116425}
2020-05-06 16:55:18,274 - evaluation - INFO - LCNN(
  (layer1): Sequential(
    (0): mfm(
      (filter): Conv2d(1, 16, kernel_size=(5, 5), stride=(1, 1), padding=(2, 2))
    )
    (1): MaxPool2d(kernel_size=2, stride=2, padding=0, dilation=1, ceil_mode=False)
  )
  (layer2): Sequential(
    (0): group(
      (conv_a): mfm(
        (filter): Conv2d(8, 16, kernel_size=(1, 1), stride=(1, 1))
      )
      (bn): BatchNorm2d(8, eps=1e-05, momentum=0.1, affine=True, track_running_stats=True)
      (conv): mfm(
        (filter): Conv2d(8, 24, kernel_size=(3, 3), stride=(1, 1), padding=(1, 1))
      )
    )
    (1): MaxPool2d(kernel_size=2, stride=2, padding=0, dilation=1, ceil_mode=False)
    (2): BatchNorm2d(12, eps=1e-05, momentum=0.1, affine=True, track_running_stats=True)
  )
  (layer3): Sequential(
    (0): group(
      (conv_a): mfm(
        (filter): Conv2d(12, 24, kernel_size=(1, 1), stride=(1, 1))
      )
      (bn): BatchNorm2d(12, eps=1e-05, momentum=0.1, affine=True, track_running_stats=True)
      (conv): mfm(
        (filter): Conv2d(12, 24, kernel_size=(3, 3), stride=(1, 1), padding=(1, 1))
      )
    )
    (1): MaxPool2d(kernel_size=2, stride=2, padding=0, dilation=1, ceil_mode=False)
  )
  (layer4): Sequential(
    (0): group(
      (conv_a): mfm(
        (filter): Conv2d(12, 24, kernel_size=(1, 1), stride=(1, 1))
      )
      (bn): BatchNorm2d(12, eps=1e-05, momentum=0.1, affine=True, track_running_stats=True)
      (conv): mfm(
        (filter): Conv2d(12, 8, kernel_size=(3, 3), stride=(1, 1), padding=(1, 1))
      )
    )
    (1): BatchNorm2d(4, eps=1e-05, momentum=0.1, affine=True, track_running_stats=True)
    (2): group(
      (conv_a): mfm(
        (filter): Conv2d(4, 8, kernel_size=(1, 1), stride=(1, 1))
      )
      (bn): BatchNorm2d(4, eps=1e-05, momentum=0.1, affine=True, track_running_stats=True)
      (conv): mfm(
        (filter): Conv2d(4, 8, kernel_size=(3, 3), stride=(1, 1), padding=(1, 1))
      )
    )
    (3): MaxPool2d(kernel_size=2, stride=2, padding=0, dilation=1, ceil_mode=False)
  )
  (fc1): Sequential(
    (0): mfm(
      (filter): Sequential(
        (0): Linear(in_features=7844, out_features=64, bias=True)
        (1): Dropout(p=0.75, inplace=False)
      )
    )
    (1): BatchNorm1d(32, eps=1e-05, momentum=0.1, affine=True, track_running_stats=True)
  )
  (fc2): AngleLinear()
)
Trainable parameters: 509072
2020-05-06 16:55:18,277 - evaluation - INFO - Loading checkpoint: _saved/models/LA_lcnnHalf_LPSseg_uf_seg600/20200502_030052/model_best.pth ...
2020-05-06 16:55:41,942 - evaluation - INFO - {'accuracy': 0.9644699140401146}
2020-05-06 16:57:29,214 - evaluation - INFO - LCNN(
  (layer1): Sequential(
    (0): mfm(
      (filter): Conv2d(1, 16, kernel_size=(5, 5), stride=(1, 1), padding=(2, 2))
    )
    (1): MaxPool2d(kernel_size=2, stride=2, padding=0, dilation=1, ceil_mode=False)
  )
  (layer2): Sequential(
    (0): group(
      (conv_a): mfm(
        (filter): Conv2d(8, 16, kernel_size=(1, 1), stride=(1, 1))
      )
      (bn): BatchNorm2d(8, eps=1e-05, momentum=0.1, affine=True, track_running_stats=True)
      (conv): mfm(
        (filter): Conv2d(8, 24, kernel_size=(3, 3), stride=(1, 1), padding=(1, 1))
      )
    )
    (1): MaxPool2d(kernel_size=2, stride=2, padding=0, dilation=1, ceil_mode=False)
    (2): BatchNorm2d(12, eps=1e-05, momentum=0.1, affine=True, track_running_stats=True)
  )
  (layer3): Sequential(
    (0): group(
      (conv_a): mfm(
        (filter): Conv2d(12, 24, kernel_size=(1, 1), stride=(1, 1))
      )
      (bn): BatchNorm2d(12, eps=1e-05, momentum=0.1, affine=True, track_running_stats=True)
      (conv): mfm(
        (filter): Conv2d(12, 24, kernel_size=(3, 3), stride=(1, 1), padding=(1, 1))
      )
    )
    (1): MaxPool2d(kernel_size=2, stride=2, padding=0, dilation=1, ceil_mode=False)
  )
  (layer4): Sequential(
    (0): group(
      (conv_a): mfm(
        (filter): Conv2d(12, 24, kernel_size=(1, 1), stride=(1, 1))
      )
      (bn): BatchNorm2d(12, eps=1e-05, momentum=0.1, affine=True, track_running_stats=True)
      (conv): mfm(
        (filter): Conv2d(12, 8, kernel_size=(3, 3), stride=(1, 1), padding=(1, 1))
      )
    )
    (1): BatchNorm2d(4, eps=1e-05, momentum=0.1, affine=True, track_running_stats=True)
    (2): group(
      (conv_a): mfm(
        (filter): Conv2d(4, 8, kernel_size=(1, 1), stride=(1, 1))
      )
      (bn): BatchNorm2d(4, eps=1e-05, momentum=0.1, affine=True, track_running_stats=True)
      (conv): mfm(
        (filter): Conv2d(4, 8, kernel_size=(3, 3), stride=(1, 1), padding=(1, 1))
      )
    )
    (3): MaxPool2d(kernel_size=2, stride=2, padding=0, dilation=1, ceil_mode=False)
  )
  (fc1): Sequential(
    (0): mfm(
      (filter): Sequential(
        (0): Linear(in_features=7844, out_features=64, bias=True)
        (1): Dropout(p=0.75, inplace=False)
      )
    )
    (1): BatchNorm1d(32, eps=1e-05, momentum=0.1, affine=True, track_running_stats=True)
  )
  (fc2): AngleLinear()
)
Trainable parameters: 509072
2020-05-06 16:57:29,217 - evaluation - INFO - Loading checkpoint: _saved/models/LA_lcnnHalf_LPSseg_uf_seg600/20200502_030052/model_best.pth ...
2020-05-06 16:57:53,098 - evaluation - INFO - {'accuracy': 0.9644699140401146}
2020-05-06 16:57:53,151 - evaluation - INFO - {'min-tDCF': 0, 'EER': 3.182553880228299, 'EER_point': -0.24779729545116425}
2020-05-06 17:02:58,077 - evaluation - INFO - LCNN(
  (layer1): Sequential(
    (0): mfm(
      (filter): Conv2d(1, 16, kernel_size=(5, 5), stride=(1, 1), padding=(2, 2))
    )
    (1): MaxPool2d(kernel_size=2, stride=2, padding=0, dilation=1, ceil_mode=False)
  )
  (layer2): Sequential(
    (0): group(
      (conv_a): mfm(
        (filter): Conv2d(8, 16, kernel_size=(1, 1), stride=(1, 1))
      )
      (bn): BatchNorm2d(8, eps=1e-05, momentum=0.1, affine=True, track_running_stats=True)
      (conv): mfm(
        (filter): Conv2d(8, 24, kernel_size=(3, 3), stride=(1, 1), padding=(1, 1))
      )
    )
    (1): MaxPool2d(kernel_size=2, stride=2, padding=0, dilation=1, ceil_mode=False)
    (2): BatchNorm2d(12, eps=1e-05, momentum=0.1, affine=True, track_running_stats=True)
  )
  (layer3): Sequential(
    (0): group(
      (conv_a): mfm(
        (filter): Conv2d(12, 24, kernel_size=(1, 1), stride=(1, 1))
      )
      (bn): BatchNorm2d(12, eps=1e-05, momentum=0.1, affine=True, track_running_stats=True)
      (conv): mfm(
        (filter): Conv2d(12, 24, kernel_size=(3, 3), stride=(1, 1), padding=(1, 1))
      )
    )
    (1): MaxPool2d(kernel_size=2, stride=2, padding=0, dilation=1, ceil_mode=False)
  )
  (layer4): Sequential(
    (0): group(
      (conv_a): mfm(
        (filter): Conv2d(12, 24, kernel_size=(1, 1), stride=(1, 1))
      )
      (bn): BatchNorm2d(12, eps=1e-05, momentum=0.1, affine=True, track_running_stats=True)
      (conv): mfm(
        (filter): Conv2d(12, 8, kernel_size=(3, 3), stride=(1, 1), padding=(1, 1))
      )
    )
    (1): BatchNorm2d(4, eps=1e-05, momentum=0.1, affine=True, track_running_stats=True)
    (2): group(
      (conv_a): mfm(
        (filter): Conv2d(4, 8, kernel_size=(1, 1), stride=(1, 1))
      )
      (bn): BatchNorm2d(4, eps=1e-05, momentum=0.1, affine=True, track_running_stats=True)
      (conv): mfm(
        (filter): Conv2d(4, 8, kernel_size=(3, 3), stride=(1, 1), padding=(1, 1))
      )
    )
    (3): MaxPool2d(kernel_size=2, stride=2, padding=0, dilation=1, ceil_mode=False)
  )
  (fc1): Sequential(
    (0): mfm(
      (filter): Sequential(
        (0): Linear(in_features=7844, out_features=64, bias=True)
        (1): Dropout(p=0.75, inplace=False)
      )
    )
    (1): BatchNorm1d(32, eps=1e-05, momentum=0.1, affine=True, track_running_stats=True)
  )
  (fc2): AngleLinear()
)
Trainable parameters: 509072
2020-05-06 17:02:58,080 - evaluation - INFO - Loading checkpoint: _saved/models/LA_lcnnHalf_LPSseg_uf_seg600/20200502_030052/model_best.pth ...
2020-05-06 17:03:21,834 - evaluation - INFO - {'accuracy': 0.9644699140401146}
2020-05-06 17:03:21,918 - evaluation - INFO - {'min-tDCF': 0, 'EER': 3.182553880228299, 'EER_point': -0.24779729545116425}
